…
/aiarena/nas/18_data/jiangy/RPSF/cnn/src/env/dmc2gym/dmc2gym/wrappers.py:10: DeprecationWarning: `np.int` is a deprecated alias for the builtin `int`. To silence this warning, use `int` by itself. Doing this will not modify any behavior and is safe. When replacing `np.int`, you may wish to use e.g. `np.int64` or `np.int32` to specify the precision. If you wish to review your current use, check the release note link for additional information.
Deprecated in NumPy 1.20; for more details and guidance: https://numpy.org/devdocs/release/1.20.0-notes.html#deprecations
  dim = np.int(np.prod(s.shape))
aux: True
head_true: False
Working directory: logs/reacher_easy/svea/1
Observations: (9, 84, 84)
Cropped observations: (9, 84, 84)
self.layers: ModuleList(
  (0): NormalizeImg()
  (1): Conv2d(9, 32, kernel_size=(3, 3), stride=(2, 2))
  (2): ReLU()
  (3): Conv2d(32, 32, kernel_size=(3, 3), stride=(1, 1))
  (4): ReLU()
  (5): Conv2d(32, 32, kernel_size=(3, 3), stride=(1, 1))
  (6): ReLU()
  (7): Conv2d(32, 32, kernel_size=(3, 3), stride=(1, 1))
  (8): ReLU()
  (9): Conv2d(32, 32, kernel_size=(3, 3), stride=(1, 1))
  (10): ReLU()
  (11): Conv2d(32, 32, kernel_size=(3, 3), stride=(1, 1))
  (12): ReLU()
  (13): Conv2d(32, 32, kernel_size=(3, 3), stride=(1, 1))
  (14): ReLU()
  (15): Conv2d(32, 32, kernel_size=(3, 3), stride=(1, 1))
  (16): ReLU()
  (17): Conv2d(32, 32, kernel_size=(3, 3), stride=(1, 1))
  (18): ReLU()
  (19): Conv2d(32, 32, kernel_size=(3, 3), stride=(1, 1))
  (20): ReLU()
  (21): Conv2d(32, 32, kernel_size=(3, 3), stride=(1, 1))
)
self.layers[:2*shared_cnn_layers]: ModuleList(
  (0): NormalizeImg()
  (1): Conv2d(9, 32, kernel_size=(3, 3), stride=(2, 2))
  (2): ReLU()
  (3): Conv2d(32, 32, kernel_size=(3, 3), stride=(1, 1))
  (4): ReLU()
  (5): Conv2d(32, 32, kernel_size=(3, 3), stride=(1, 1))
  (6): ReLU()
  (7): Conv2d(32, 32, kernel_size=(3, 3), stride=(1, 1))
  (8): ReLU()
  (9): Conv2d(32, 32, kernel_size=(3, 3), stride=(1, 1))
  (10): ReLU()
  (11): Conv2d(32, 32, kernel_size=(3, 3), stride=(1, 1))
  (12): ReLU()
  (13): Conv2d(32, 32, kernel_size=(3, 3), stride=(1, 1))
  (14): ReLU()
  (15): Conv2d(32, 32, kernel_size=(3, 3), stride=(1, 1))
  (16): ReLU()
  (17): Conv2d(32, 32, kernel_size=(3, 3), stride=(1, 1))
  (18): ReLU()
  (19): Conv2d(32, 32, kernel_size=(3, 3), stride=(1, 1))
)
x_shpae: torch.Size([9, 84, 84])
x_shpae: torch.Size([32, 41, 41])
x_shpae: torch.Size([32, 41, 41])
x_shpae: torch.Size([32, 39, 39])
x_shpae: torch.Size([32, 39, 39])
x_shpae: torch.Size([32, 37, 37])
x_shpae: torch.Size([32, 37, 37])
x_shpae: torch.Size([32, 35, 35])
x_shpae: torch.Size([32, 35, 35])
x_shpae: torch.Size([32, 33, 33])
x_shpae: torch.Size([32, 33, 33])
…
